NN/krk_PyTorch/net.pkl (torch, 7727 bytes, 8 tensors)

weight f4 [20, 6]
0	0x3eb7a297	0.35866234
1	0xbe8a7328	-0.27040982
2	0xbee470c4	-0.44617283
3	0x3ea698ee	0.3253855
4	0x3eee31bf	0.46522328
5	0xbe797f00	-0.24364853
6	0xbdf30815	-0.11866776
7	0x3e6a9a93	0.22910528
8	0x3e25ef64	0.16204602
9	0x3d1207f6	0.035652123
10	0x3e8e2127	0.27759668
11	0xbedfe53e	-0.43729585
12	0x3dd1cc83	0.10244086
13	0xbe5e4a91	-0.21708132
14	0x3f04a2dc	0.51811004
15	0x3ea5bf70	0.32372618
16	0xbee4e5ac	-0.44706476
17	0x3d8b9bb8	0.0681681
18	0xbdcc19b0	-0.09965837
19	0x3e36c423	0.17848258
20	0x3ea3d87e	0.32001108
21	0x3ed9c1d7	0.425307
22	0xbec6bec3	-0.38817415
23	0x3d9705d4	0.073741585
24	0x3f0925cf	0.53573316
25	0xbd3be4e6	-0.04587259
26	0x3e5a0ccd	0.21293946
27	0xbe9f2eef	-0.31090495
28	0xbcf49690	-0.02985695
29	0x3da1244d	0.07868252
30	0xbe470477	-0.19435297
31	0xbd7c107e	-0.061539166
32	0x3ee3428f	0.44386718
33	0xbeac6f92	-0.3367887
34	0x3d54a354	0.051913574
35	0x3d905c80	0.07048893
36	0x3ed559d1	0.41670087
37	0xbcaa331c	-0.020776324
38	0x3eee2725	0.4651424
39	0x3e288500	0.16456985
40	0xbe19a058	-0.15002573
41	0xbeab1abe	-0.3341884
42	0x3e6e0ab9	0.23246278
43	0x3e45c6d3	0.19314127
44	0x3e354608	0.17702496
45	0xbe9d4420	-0.30716038
46	0x3de13362	0.109961286
47	0x3ed5e7d7	0.41778442
48	0x3e8a1e1a	0.2697609
49	0x3e26798e	0.16257307
50	0xbdd4f385	-0.1039801
51	0x3ef6a381	0.4817162
52	0x3dfff615	0.12498108
53	0xbeea507f	-0.4576454
54	0x3eca67a8	0.39532208
55	0x3de5bd38	0.11217731
56	0xbe84298e	-0.25812954
57	0x3e488cee	0.1958501
58	0x3e9e435f	0.30910775
59	0x3e754530	0.23952174
60	0x3eccc5f6	0.39994782
61	0xbeb75c73	-0.3581272
62	0x3e19dc73	0.15025501
63	0x3ddd514c	0.10806522
64	0x3f0fd0e0	0.5617809
65	0x3e691f01	0.22765733
66	0xbc2ab757	-0.010419688
67	0xbe2d3678	-0.1691531
68	0xbe4cb26c	-0.19989938
69	0x3ec1cf41	0.37853435
70	0x3ed64954	0.4185282
71	0xbecc6c41	-0.3992634
72	0xbda49aad	-0.080373146
73	0x3e65a7bc	0.22427267
74	0xbed6288f	-0.4182782
75	0x3e0453de	0.12922618
76	0x3f01d1f6	0.50711
77	0xbda8dee5	-0.08245639
78	0x3e3dd346	0.18537626
79	0x3db31e62	0.087460294
80	0x3e7c9649	0.24666704
81	0xbe8bb840	-0.2728901
82	0xbd9aa95f	-0.07551836
83	0x3f1f693d	0.62269956
84	0xbec2115f	-0.37903878
85	0xbed4d528	-0.41568875
86	0xbe784461	-0.24244834
87	0xbeb09d88	-0.34495187
88	0x3e14f6b3	0.14547233
89	0xbc13bc83	-0.009017113
90	0xbdcd8012	-0.10034193
91	0x3e7ef67d	0.24898715
92	0x3d84458b	0.06458577
93	0x3ef028ca	0.4690612
94	0xbe0f0305	-0.13965996
95	0xbef2ba4e	-0.47407764
96	0x3dde53b4	0.10855809
97	0xbd7e6c7d	-0.06211518
98	0x3ee42ca2	0.44565302
99	0x3e8ae771	0.271297
100	0xbeda307b	-0.42615113
101	0xbe870b39	-0.2637575
102	0xbe8b7efd	-0.27245322
103	0xbe9b4341	-0.30324748
104	0x3ecc3d9d	0.39890757
105	0x3e5a3d92	0.2131255
106	0x3e2cd791	0.16879107
107	0xbdfe4e58	-0.12417287
108	0xbe0d948e	-0.138262
109	0x3d744898	0.059639543
110	0xbe283769	-0.16427387
111	0xbc410c40	-0.011782706
112	0x3c2bb800	0.010480881
113	0xbbba0640	-0.0056770146
114	0x3e578ca3	0.21049742
115	0x3e94a11e	0.29029173
116	0x3da6eb9d	0.081504084
117	0x3e73339d	0.23750158
118	0xbdbb9293	-0.09158816
119	0xbe906fa1	-0.28210166

bias f4 [20]
0	0x3c2fb1b9	0.010723525
1	0x3e246760	0.1605506
2	0xbe96dae1	-0.29463866
3	0x3f051e72	0.5199958
4	0x3d6eae1d	0.058271516
5	0xbe9dd45f	-0.3082609
6	0xbda26957	-0.07930248
7	0xbe836b2c	-0.25667703
8	0x3e0d944e	0.13826105
9	0x3eedbe7a	0.46434385
10	0x3e64931b	0.22321741
11	0x3e7fa660	0.24965811
12	0xbf1723ec	-0.5903919
13	0xbe127242	-0.14301398
14	0x3eca4201	0.39503482
15	0x3dd81e62	0.1055267
16	0xbe2f3de3	-0.17113452
17	0xbcd02ebf	-0.025412915
18	0xbe8f83b0	-0.28030157
19	0x3e9c0958	0.3047588

weight f4 [20, 20]
0	0xbdf9a148	-0.12188965
1	0xbdc86a3f	-0.0978589
2	0x3eb4e4f5	0.3533093
3	0x3e2227f4	0.15835553
4	0xbc83436c	-0.01602336
5	0x3d8335f0	0.06406772
6	0x3ea18629	0.3154767
7	0xbe427004	-0.18988043
8	0x3dcdf9c0	0.10057402
9	0xbe6e267b	-0.23256867
10	0xbe5019ee	-0.20322391
11	0x3ea5d841	0.3239155
12	0x3e80e2cf	0.2517304
13	0x3db9485f	0.09047007
14	0xbb96037f	-0.0045780535
15	0x3e71fb49	0.23631014
16	0x3f047a35	0.51748973
17	0x3d7802df	0.060549613
18	0xbe24ab65	-0.16081007
19	0x3e44e2db	0.19227163
20	0xbe40116b	-0.18756644
21	0xbc538f54	-0.01291259
22	0x3e1ee20a	0.15515915
23	0x3e4784b0	0.1948421
24	0xbda2b25c	-0.079441756
25	0xbd744a7f	-0.059641358
26	0xbe04a1ef	-0.12952398
27	0xbd3e49f7	-0.046457257
28	0x3d83a886	0.06428628
29	0xbdd6f7af	-0.10496461
30	0x3e4249bf	0.18973444
31	0x3d2684ef	0.04065412
32	0xbe0b524d	-0.13605614
33	0xbe4de574	-0.2010706
34	0x3e5461d5	0.20740445
35	0xbe9dadc5	-0.30796638
36	0xbf2dff43	-0.67967623
37	0x3e0c0181	0.13672449
38	0xbe02815c	-0.12744659
39	0x3dae44c5	0.085092105
40	0x3effef36	0.4998719
41	0x3ddf725e	0.10910486
42	0xbed173dc	-0.40908706
43	0xbccde091	-0.025131496
44	0xbe913902	-0.28363806
45	0xbdf0c589	-0.11756427
46	0xbdfb2aaa	-0.12263997
47	0x3dfc0120	0.12304902
48	0xbd07914c	-0.03309755
49	0x3e3d0dc7	0.18462287
50	0x3e38e8fe	0.1805763
51	0x3e89416c	0.26807725
52	0x3dc40816	0.09571855
53	0xbd94b808	-0.07261664
54	0xbe58123e	-0.21100709
55	0xbe3e6e8e	-0.18596861
56	0xbeb30bc8	-0.34969926
57	0xbbc4d1e9	-0.0060064686
58	0xbe393caa	-0.18089548
59	0x3e0763e8	0.13221705
60	0x3ee38b65	0.44442287
61	0x3e8a36de	0.26994985
62	0x3d805e7e	0.06268023
63	0xbdb562a7	-0.08856707
64	0xbea07a35	-0.31343237
65	0xbea16bc5	-0.31527534
66	0x3e231707	0.15926753
67	0xbe04efb2	-0.12982062
68	0x3e222f02	0.15838245
69	0x3c90d386	0.017678987
70	0x3e07125a	0.13190594
71	0x3e3553ff	0.17707823
72	0x3ee84e6d	0.45372334
73	0xbe7b2f10	-0.24529672
74	0xbe0132d7	-0.1261705
75	0x3e5b3c24	0.2140966
76	0x3e4b76a6	0.1986948
77	0xbd234835	-0.039863784
78	0xbdef4524	-0.116831094
79	0x3de58b5c	0.11208221
80	0x3e3f741c	0.18696636
81	0x3e8368c1	0.25665858
82	0x3d8db0af	0.06918465
83	0x3dbed2cc	0.0931755
84	0xbdedd785	-0.11613373
85	0xbe60c521	-0.21950199
86	0x3dd71988	0.105029166
87	0x3de80db8	0.11330742
88	0x3e4fcc57	0.20292793
89	0x3e5b2264	0.21399838
90	0xbded0f89	-0.11575229
91	0x3ec2d31b	0.38051686
92	0x3c6fa938	0.014627747
93	0xbdfe1b79	-0.12407584
94	0xbd096c00	-0.033550262
95	0x3eb9ffa3	0.36327848
96	0x3e05b7a6	0.13058338
97	0x3e62a771	0.22134186
98	0xbdce1589	-0.10062701
99	0xbd6eb2a0	-0.05827582
100	0xbd97b8e8	-0.07408315
101	0x3e308b64	0.17240673
102	0x3d0c90f3	0.03431792
103	0x3dafd541	0.08585597
104	0x3d4c47cb	0.049873155
105	0xbde228d9	-0.11042947
106	0xbab962a2	-0.0014143775
107	0x3defc053	0.11706605
108	0xbe39d0e7	-0.18146096
109	0x3dd4ad44	0.1038461
110	0xbdb555ad	-0.08854232
111	0x3ea71639	0.32634142
112	0xbc6b0169	-0.014343598
113	0x3d95aa7a	0.073079064
114	0x3e0b9309	0.13630308
115	0x3eb38019	0.35058668
116	0x3e99aa29	0.30012634
117	0x3d83006d	0.063965656
118	0x3d27b118	0.040940374
119	0x3dc3ee37	0.0956692
120	0xbee881fc	-0.4541167
121	0xbe0128ae	-0.12613174
122	0x3e95e0c1	0.29273036
123	0x3e459e8b	0.1929876
124	0x3e191f67	0.14953385
125	0x3ebf0ce9	0.37314537
126	0xbdadc7d9	-0.084853835
127	0x3e2f3990	0.17111802
128	0xbe413b71	-0.18870331
129	0xbd852dcd	-0.065028764
130	0x3dc967ff	0.09834289
131	0xbe6c5a9e	-0.23081443
132	0xbef0f01f	-0.47058198
133	0x3defb580	0.1170454
134	0xbdfec737	-0.12440341
135	0xbe33308e	-0.17498991
136	0xbe920f97	-0.2852752
137	0x3e6efb2b	0.23338
138	0x3d700308	0.05859664
139	0x3e33d4ed	0.17561693
140	0x3b0f0fef	0.0021829566
141	0xbdeed8f0	-0.11662471
142	0x3d0966ac	0.03354518
143	0x3e7915d2	0.2432473
144	0x3d3aef82	0.04563857
145	0x3df1ed3f	0.11812829
146	0x3e289bb0	0.1646564
147	0xbe2fc5e4	-0.17165333
148	0xbd2ffc6b	-0.042965334
149	0xb913900f	-0.00014072678
150	0x3d9cfb87	0.076651625
151	0xbe30f917	-0.1728252
152	0xbe92da7a	-0.2868231
153	0x3d92922b	0.071567856
154	0x3e49fe2c	0.19725865
155	0xbd1c9f8f	-0.038238104
156	0xbe3be8a2	-0.18350461
157	0x3e26c995	0.16287835
158	0x3dc125b0	0.094310164
159	0x3e4be6b9	0.19912232
160	0xbedee503	-0.43534097
161	0xbe66fe65	-0.22557981
162	0x3e810809	0.25201443
163	0x3dfab509	0.12241561
164	0x3e4154be	0.18879983
165	0xbd192ad0	-0.037394345
166	0x3e7a4aea	0.2444264
167	0x3d8054e6	0.06266193
168	0xbd0a96f3	-0.033835363
169	0xbeba820c	-0.36427343
170	0xbe0c3163	-0.13690715
171	0xbe2ae863	-0.16690211
172	0xbdb9bdac	-0.0906938
173	0xbe2f83ad	-0.17140074
174	0xbd084184	-0.033265606
175	0x3db181c6	0.086673304
176	0x3e9ddc65	0.3083221
177	0xbd6155dc	-0.055013523
178	0xbe2aa6c9	-0.16665186
179	0xbdbde7b1	-0.09272707
180	0xbeffe9a8	-0.49982953
181	0xbe9e98bb	-0.309759
182	0x3d9358f3	0.071947
183	0xbdc71a7a	-0.09721847
184	0x3e80807f	0.25098035
185	0x3d7f7600	0.062368393
186	0xbdb93060	-0.0904243
187	0x3ed42007	0.41430685
188	0xbefeda34	-0.4977585
189	0xbdfcc374	-0.12341967
190	0x3dd81fa2	0.105529085
191	0xbecf9e54	-0.40550482
192	0x3e2becfc	0.16789621
193	0x3e66fbe3	0.22557025
194	0xbe08ea0d	-0.13370533
195	0x3cc7ba73	0.024380898
196	0x3eb80cfa	0.359474
197	0xbdfe543a	-0.12418409
198	0xbe42b830	-0.19015574
199	0xbc630d48	-0.013858147
200	0x3da5a8c7	0.08088832
201	0x3d19ec7d	0.03757905
202	0xbd16818e	-0.036744647
203	0xbe6a27a9	-0.22866692
204	0x3e711e3d	0.23546691
205	0x3db15e7c	0.086605996
206	0xbe9ff218	-0.3123939
207	0x3e427b18	0.18992269
208	0xbea0a140	-0.31373024
209	0x3e13e982	0.14444545
210	0xbd66df4e	-0.056365304
211	0x3e89fb0b	0.26949343
212	0x3ec5eb75	0.38656202
213	0x3ea1691d	0.31525508
214	0xbe1233d1	-0.14277579
215	0xbea2d75a	-0.31804925
216	0xbd3698e0	-0.044579387
217	0xbe5e07c0	-0.21682644
218	0xbbf21920	-0.007388249
219	0xbe7b0031	-0.24511792
220	0x3df19a19	0.1179697
221	0x3e126b4d	0.14298744
222	0xbe2ae3f5	-0.16688521
223	0x3e65a966	0.22427902
224	0xbdc5cce4	-0.096582204
225	0xbc682cd1	-0.014170841
226	0x3e495d7e	0.1966457
227	0xbe3a7744	-0.18209559
228	0xbd77500c	-0.060379073
229	0x3c1b8723	0.009492668
230	0x3e139645	0.14412792
231	0xbd72661d	-0.059179414
232	0xbe4b176c	-0.19833153
233	0x3e18980d	0.14901753
234	0xbd858b73	-0.065207385
235	0x3c50b38b	0.012738119
236	0xbe15ec69	-0.14640965
237	0x3da9923b	0.082798444
238	0xbe53ca6e	-0.2068269
239	0x3e7b1b6a	0.24522176
240	0xbc85aac3	-0.016316777
241	0xbdcc531d	-0.0997679
242	0xbcb3a741	-0.021930339
243	0x3c95c6f2	0.018283341
244	0xbe2d7d38	-0.16942298
245	0x3e3801bc	0.17969412
246	0x3d0ecd49	0.034863744
247	0xbd951be4	-0.0728071
248	0x3d95f75f	0.07322573
249	0x3d98fca8	0.07470065
250	0xbe6d711b	-0.23187678
251	0xbe317fc6	-0.17333898
252	0xbe218d12	-0.1577647
253	0x3d0df4e9	0.034657393
254	0xbdfda7ee	-0.12385546
255	0xbd33612b	-0.04379384

bias f4 [20]
0	0xbd8647ef	-0.06556689
1	0x3eab8bc4	0.3350507
2	0x3e88e5f3	0.26737937
3	0xbec002e2	-0.375022
4	0xbe195ad5	-0.14976056
5	0xbe9de0aa	-0.30835468
6	0x3e9d9837	0.30780193
7	0x3e94723f	0.28993413
8	0x3e702a96	0.23453745
9	0x3e1846fe	0.14870831
10	0xbe72763c	-0.23677915
11	0x3e932957	0.28742477
12	0xbc712b5d	-0.014719811
13	0x3eba8945	0.36432853
14	0x3e318e9f	0.17339562
15	0xbe83bba5	-0.257291
16	0x3ef97023	0.48718366
17	0xbe4dcab2	-0.20096853
18	0xbe1f6bb8	-0.15568435
19	0x3e2afbfa	0.16697684

weight f4 [20, 20]
0	0xbec33313	-0.38124904
1	0x3eaaed3a	0.33384115
2	0x3d4b3fbd	0.049621332
3	0xbe92eaee	-0.28694862
4	0x3de3cc87	0.11122995
5	0x3d90f864	0.07078627
6	0x3d9762ce	0.073918924
7	0x3e504fc8	0.20342934
8	0x3ec80cfc	0.39072406
9	0xbe4fe918	-0.20303762
10	0xbe944ff7	-0.28967258
11	0x3dc63627	0.096782975
12	0xbe13e263	-0.14441828
13	0x3ea5409f	0.32275864
14	0x3e1c64a3	0.15272765
15	0x3e3351a2	0.17511609
16	0x3e80ff3f	0.25194737
17	0xbe397640	-0.18111515
18	0xbebf9e27	-0.37425348
19	0x3dbb72fb	0.0915279
20	0x3ec24832	0.37945706
21	0xbdde6c37	-0.10860484
22	0xbe27e9f9	-0.16397847
23	0x3f1df768	0.61705637
24	0x3e882830	0.2659316
25	0xbd2fe2f6	-0.042941056
26	0xbe3a004a	-0.18164173
27	0xbe6c476b	-0.23074119
28	0xbdd79c70	-0.10527885
29	0x3f00716c	0.5017307
30	0x3f35b960	0.70985985
31	0xbe392392	-0.18079975
32	0xbd9d3296	-0.07675664
33	0x3db7ee12	0.08980955
34	0xbe1cc12a	-0.15308061
35	0x3e412ce4	0.1886478
36	0x3c4427b2	0.011972355
37	0x3ea50b94	0.32235396
38	0x3e5dadb9	0.21648301
39	0x3dd1c8f1	0.10243405
40	0x3ef9acc0	0.4876461
41	0xbe8925d7	-0.26786682
42	0xbd26a648	-0.040685922
43	0x3f3131ac	0.6921642
44	0x3e63c157	0.22241722
45	0xbddda7f9	-0.10823054
46	0xbeea17b0	-0.45721197
47	0xbe3a6130	-0.18201137
48	0x3cf9c205	0.030488024
49	0xbec78542	-0.38968855
50	0x3e6a7e11	0.22899653
51	0x3daef5e9	0.085429974
52	0xbe08fd2e	-0.1337783
53	0xbe98f161	-0.29871657
54	0x3e85cc71	0.2613254
55	0x3eaa7a94	0.33296645
56	0xbe9427f5	-0.28936735
57	0x3eb3eb11	0.3514028
58	0x3f19c130	0.60060406
59	0x3e566739	0.20937814
60	0x3f015303	0.5051729
61	0xbdafc5c8	-0.08582646
62	0xbe600f14	-0.21880752
63	0x3f15a011	0.58447367
64	0x3d236a98	0.039896578
65	0xbd86e6c6	-0.06586985
66	0x3d98c0bd	0.07458637
67	0x3c01f848	0.00793273
68	0xbeeba39c	-0.46023262
69	0x3e8f876f	0.28033015
70	0x3ee5e25d	0.44899264
71	0xbe21e0fd	-0.15808482
72	0xbe1376ca	-0.14400783
73	0x3dfc6d66	0.123255536
74	0xbba774ee	-0.0051103747
75	0x3df23bf9	0.11827845
76	0xbdbf5cfc	-0.09343907
77	0x3ed486ba	0.41509038
78	0x3ef3f962	0.476512
79	0xbb239a77	-0.0024963894
80	0x3e93d497	0.2887313
81	0xbe97de07	-0.2966158
82	0xbd3b81f3	-0.045778226
83	0x3edd1390	0.43178988
84	0x3e24e72b	0.16103809
85	0xbe02c404	-0.12770087
86	0xbe5b63c7	-0.21424781
87	0xbd2cfeb2	-0.042235084
88	0xbeb5350a	-0.35392028
89	0x3f06170a	0.52378905
90	0x3f0c56a1	0.54819685
91	0x3d933ca3	0.071893
92	0xbdb3b2c8	-0.08774334
93	0x3d375ee4	0.04476823
94	0xbe58a4e7	-0.21156655
95	0x3e443fe4	0.19164997
96	0x3d455b82	0.04818297
97	0x3ee12e85	0.43980804
98	0x3ed93381	0.42422107
99	0xbd4eb3d7	-0.050464477
100	0xbd9137a7	-0.07090693
101	0xbdeb565e	-0.114910826
102	0xbe4d84b6	-0.20070156
103	0xbe39f1f0	-0.18158698
104	0x3db7d120	0.08975434
105	0xbd02c87d	-0.03192948
106	0x3d7a845b	0.06116138
107	0xbe86e8fa	-0.26349622
108	0xbdd75e76	-0.10516064
109	0x3d7b6762	0.06137789
110	0xbe1a1841	-0.15048315
111	0xbdbc4daa	-0.09194501
112	0xbde86b41	-0.11348582
113	0xbdb72256	-0.08942096
114	0xbe82b4cf	-0.2552857
115	0xbe63dc36	-0.22251973
116	0x3d917f27	0.071043305
117	0xbe1dd127	-0.15411817
118	0xbdc5de16	-0.096615
119	0x3dd9059a	0.105967715
120	0x3e9cf0f4	0.30652583
121	0xbea9d3f1	-0.3316951
122	0x3e27975a	0.1636633
123	0x3e821af4	0.2541119
124	0xbd6d4b22	-0.05793298
125	0x3e490fdf	0.1963496
126	0xbdad421e	-0.084598765
127	0x3d195eff	0.03744411
128	0xbe6fe8f5	-0.2342871
129	0x3e6cc25b	0.23121016
130	0x3e1da863	0.15396266
131	0x3d6d6b72	0.057963796
132	0x3d0a3e3b	0.033750754
133	0x3da9a0c8	0.0828262
134	0x3e38d157	0.18048607
135	0x3dc8793e	0.0978875
136	0x3be9299b	0.0071155555
137	0x3d78b201	0.060716633
138	0x3ec16c7e	0.37778085
139	0xbe581237	-0.21100698
140	0xbdc65401	-0.09683991
141	0x3e0769f8	0.13224018
142	0xbdabb830	-0.0838474
143	0x3dd8ce59	0.10586233
144	0x3e4585fd	0.19289394
145	0xbe516167	-0.20447312
146	0xbc02a9bc	-0.007975038
147	0x3e0cced9	0.13750781
148	0x3d868e50	0.06570113
149	0xbe069004	-0.13140875
150	0x3e12f45f	0.14351033
151	0xbe3b89e2	-0.18314317
152	0xbd3a01bc	-0.04541181
153	0xbab594af	-0.0013853515
154	0xbdadb055	-0.08480898
155	0xbcdc8b6e	-0.026921954
156	0x3e295d48	0.1653949
157	0xbc126ab2	-0.008936571
158	0x3e2f7019	0.17132606
159	0xbe51f596	-0.2050384
160	0xbe131738	-0.14364326
161	0x3e4fcd42	0.20293143
162	0x3e2438cb	0.1603729
163	0x3cffda45	0.031232009
164	0xbd5dceb9	-0.054152224
165	0x3d0d4377	0.034488168
166	0xbe18bda0	-0.14916086
167	0x3e37ff9e	0.17968604
168	0xbdb89946	-0.090136096
169	0xbe100b74	-0.14066869
170	0x3e257250	0.16156888
171	0x3e0d55f8	0.13802326
172	0x3cd1e50f	0.025621919
173	0x3dd99ce8	0.106256306
174	0xbd6fdcd9	-0.058560226
175	0xbd2c852d	-0.042119194
176	0xbe5528c8	-0.20816338
177	0xbe70487f	-0.23465155
178	0xbd55f470	-0.052235067
179	0xbe1eb5c8	-0.15499032
180	0x3c08eef5	0.008357753
181	0xbe69a6af	-0.22817491
182	0x3b955b1f	0.0045579816
183	0x3f197150	0.59938526
184	0x3e45a36b	0.1930062
185	0x3d996795	0.0749046
186	0xbe5c9acd	-0.21543427
187	0x3e0abb43	0.13547997
188	0xbe06e44b	-0.13173024
189	0x3f25fdf8	0.6484065
190	0x3f162643	0.5865213
191	0x3c3620a0	0.011116177
192	0x3d624ff8	0.055252045
193	0xbe6df8f7	-0.23239504
194	0x3ea985b3	0.33109817
195	0x3e71d533	0.23616485
196	0xbe1c7ef0	-0.15282798
197	0x3e1ef822	0.15524343
198	0x3efdfb2b	0.49605688
199	0xbdbe942d	-0.09305606
200	0xbd89f30e	-0.06735812
201	0x3da10e4a	0.078640535
202	0xbdc40396	-0.095709965
203	0x3d01ca57	0.031687107
204	0xbe1aa33b	-0.1510133
205	0x3e04e435	0.12977679
206	0x3d4404e5	0.04785623
207	0xbda08d52	-0.07839455
208	0x3dddaf26	0.108244225
209	0xbdf4acd5	-0.119470276
210	0xbd95410f	-0.072877996
211	0xbe5aa5c0	-0.21352291
212	0xbe1f7a77	-0.1557406
213	0x3bf816eb	0.0075710914
214	0xbb6e9ddb	-0.0036410007
215	0xbdbef91a	-0.09324856
216	0x3d15d58b	0.036580604
217	0xb92edb0e	-0.00016675537
218	0x3c9d770f	0.01922181
219	0xbd641c85	-0.05569126
220	0xbf3ddbe1	-0.74163634
221	0x3ee3f670	0.44523954
222	0x3d2cefc8	0.04222086
223	0xbea3e704	-0.32012188
224	0x3db52901	0.088457115
225	0xbe24c188	-0.16089451
226	0x3dd4dfb6	0.10394232
227	0x3e21dbe4	0.15806538
228	0xbef83a60	-0.48482037
229	0xbf4d4558	-0.80183935
230	0xbe1aafdc	-0.15106148
231	0x3e83929e	0.25697798
232	0xbe790cae	-0.24321243
233	0x3e5f633c	0.21815199
234	0x3e84e8da	0.25958902
235	0xbcdcf286	-0.026971113
236	0x3de94bd0	0.11391413
237	0xbf2a8076	-0.66602266
238	0xbdcf2a17	-0.1011545
239	0x3e7164c4	0.23573595
240	0x3ee1a1c5	0.44068733
241	0xbe1915b5	-0.14949687
242	0xbebebc0b	-0.3725284
243	0x3eb1f5ca	0.34757835
244	0xbc2fc65d	-0.010728446
245	0x3e0135c4	0.12618166
246	0x3e251a2a	0.16123262
247	0xbddbce64	-0.10732725
248	0xbe6ffbca	-0.23435894
249	0x3ee2c918	0.44294047
250	0x3f0d3299	0.5515533
251	0x3dee502c	0.11636385
252	0xbcdc4223	-0.026887005
253	0x3d76d418	0.060260862
254	0xbeba3998	-0.36372066
255	0xbd4b96d7	-0.0497044

bias f4 [20]
0	0x3dfcada3	0.12337806
1	0x3d16693d	0.036721457
2	0xbebff571	-0.37491944
3	0xbe6887a4	-0.22707993
4	0x3b1b5fcd	0.0023708225
5	0x3e092571	0.13393189
6	0x3d3cc060	0.0460819
7	0x3b9dc192	0.004814335
8	0xbda82c15	-0.08211533
9	0xbddc6d80	-0.10763073
10	0x3d897256	0.06711261
11	0x3eb4a7ee	0.3528437
12	0x3d69eebc	0.05711244
13	0xbe7f123d	-0.24909301
14	0xbdd59c99	-0.10430259
15	0xbcca3aa6	-0.024686169
16	0x3eb810ad	0.35950223
17	0x3e859bf4	0.26095545
18	0xbcfb65ad	-0.030688131
19	0xbb6a76d3	-0.003577639

weight f4 [2, 20]
0	0x3ee42771	0.4456134
1	0xbecb3d67	-0.39695284
2	0xbf12d118	-0.573503
3	0xbef709a6	-0.4824955
4	0xbc903807	-0.01760484
5	0x3e091b00	0.13389206
6	0x3d1cdd37	0.038296904
7	0x3dabe19d	0.08392642
8	0x3de19f95	0.11016766
9	0xbeeb48ef	-0.4595408
10	0xbda3773d	-0.07981727
11	0x3e5cada6	0.21550617
12	0xbec9e034	-0.39428866
13	0xbf19dac7	-0.6009945
14	0xbe1a1332	-0.15046385
15	0xbf36dd76	-0.7143167
16	0x3f021648	0.5081525
17	0x3ebc8d82	0.36826712
18	0xbe8a5896	-0.2702071
19	0xbefa9ae4	-0.48946297
20	0xbe8b8e31	-0.2725692
21	0x3ebd0ff7	0.36926243
22	0x3f045b4a	0.51701796
23	0x3f075987	0.5287098
24	0x3ecb8e27	0.3975689
25	0xbd8d435a	-0.06897612
26	0x3e4a35c1	0.19747068
27	0xbe4b5f52	-0.1986058
28	0xbdf1b234	-0.11801568
29	0x3db792d4	0.08963552
30	0xbe011967	-0.12607346
31	0xbebed1e6	-0.37269515
32	0x3f2f0943	0.6837351
33	0x3f0dccc8	0.55390596
34	0x3ede7f3a	0.4345644
35	0x3f0e34b8	0.5554919
36	0xbef201a0	-0.47266865
37	0xbe957f25	-0.29198566
38	0x3ed9e87a	0.42560178
39	0x3e97e93f	0.2967014

bias f4 [2]
0	0x3dbf4f72	0.09341325
1	0xbe134f41	-0.14385702
