NN/MNIST_PyTorch/lenet.pkl (torch, 251519 bytes, 10 tensors)

weight f4 [6, 1, 5, 5]
00000000: a0c3 663e 980d cc3e 418d 473e 0e52 c63e
00000010: 932f 9c3d 9d59 b43e a0ac a83e bbe5 983e
00000020: 6891 243e 92c2 5e3e 85f4 04bd 0100 63be
00000030: 5d94 92bd 8183 7d3d 199b 333e b714 1dbe
00000040: ab7d cfbe e255 29be b300 11be 37de d7bd
00000050: 27bf c2be bf93 5abe f59c 9dbe f8d6 bdbe
00000060: 531c fdbd 70cb 0e3e 37fd 303e 6cc5 b3bb
00000070: 3e50 3b3e 574b 3a3e 2964 62be ea86 8e3e
00000080: 851c 4e3e 297f 523c 4a40 363e 49ea a2bd
00000090: bcea 863e 0f45 f93d 729f 0fbc bbd3 1a3d
000000a0: 7427 0c3e daaa d13d 2f35 2a3e 47b9 efbd
000000b0: 78df 183e 6871 96bd 3e54 c43d 0835 bcbd
000000c0: 290b 073d 6e6b 893e f956 013e 5a05 ce3d
000000d0: 5795 bc3e 140a 843e 326e c83d 968f c8bd
000000e0: 9a19 9f3e 2130 d23e f74a 5f3e e68e 37be
000000f0: 8060 acbd 5618 6e3c c128 05be 28f8 6f3e
00000100: bb90 903d 82c5 08be 4de0 97be 30fb 063e
00000110: 89d6 483e 5109 0e3c 7e05 54be 7ce6 073c
00000120: 4db2 b1bd 05d9 763e e29b e73d 38a5 81be
00000130: 4f44 82be 0725 e2bd c839 493e 5a87 883e
00000140: b6d4 cbbe b0f9 f4bd 13cc a63e 2afe ca3e
00000150: 183c 7d3d feb9 a53d aa2f 95bd 48c4 5b3e
00000160: dafb 983e efe0 a83e b1af ecb8 bc9e f43d
00000170: bf9e 1c3e c652 4a3d ab0b 833c 33c5 d9bd
00000180: 2e09 04bd 4fa1 9abd e4b1 8d3e f071 2d3d
00000190: e9b7 043c 50f8 1fbe c1e6 ceba 382a 52bd
000001a0: 35b6 4b3d 665a 9f3e 8297 dd3d 1248 9e3d
000001b0: ddbb 19bd 76b1 2dbd 3f99 8a3e a94c a7bd
000001c0: 1c04 17be 90b5 063e a977 53bd 88ba 6f3d
000001d0: 6ce1 213e d011 f5bd 64c7 b13e 426a a03e
000001e0: 6a46 57bd 31b5 943d 6855 543e 9161 a53e
000001f0: 3efb 5b3e 35a0 14be b89c 70be ecdb e4be
00000200: 8ba7 acbe a0eb c1be fb42 27bd a0ca e8be
00000210: c869 8ebe 31f2 5ebe 6017 72bc e1f5 793d
00000220: b51f 923e af53 413e 81b0 b63d 91d2 1e3e
00000230: e5be c33e cbcd 803d 98cc 603e 8815 ae3e
00000240: 1dd3 9e3e 3dad df3c 1d5a bb3e 4c3a 203e
00000250: 171a 933d 4cfe 963d
0.22535563 0.3985412 0.19487478 0.38734478 0.076262616 0.3522462 0.32944202 0.2986277
0.16071093 0.2175391 -0.032459754 -0.2216797 -0.07157204 0.06189299 0.17539634 -0.15339933
-0.40525565 -0.16536668 -0.14160423 -0.10540431 -0.38036463 -0.21345423 -0.3078381 -0.3707807
-0.12358918 0.13944793 0.17284094 -0.005486181 0.18292329 0.18192802 -0.2210852 0.27837306
0.20128067 0.0128477 0.17797962 -0.079548426 0.26350963 0.12171375 -0.008766042 0.03779958
0.13686925 0.102376655 0.1662185 -0.11705261 0.14928997 -0.07345849 0.095863804 -0.091898024
0.032969628 0.26839775 0.12630834 0.100596145 0.36832687 0.2578894 0.09786643 -0.09793012
0.3107422 0.41052344 0.2180594 -0.17925605 -0.084168434 0.014532169 -0.13003828 0.23434508
0.07058855 -0.13356593 -0.29663315 0.13181758 0.19613089 0.008669213 -0.2070522 0.008294698
-0.08676586 0.24106224 0.11309029 -0.25321364 -0.2544274 -0.11042219 0.19650948 0.26665765
-0.39810723 -0.119616866 0.3257757 0.39647037 0.061824888 0.08092116 -0.07284482 0.21461594
0.29879647 0.3298411 -0.00011286082 0.11944339 0.15294932 0.049395345 0.015996775 -0.10633316
-0.032235317 -0.075502984 0.27674782 0.042344987 0.008100488 -0.15622067 -0.0015785323 -0.051309794
0.049734313 0.31123656 0.108199134 0.0772859 -0.037532676 -0.042405568 0.27070042 -0.08168919
-0.14747661 0.13155198 -0.05162779 0.0585275 0.15808648 -0.11966288 0.34722435 0.31331068
-0.052557386 0.07261122 0.20735705 0.32301 0.2148256 -0.14514239 -0.23497283 -0.44699037
-0.33721575 -0.3787508 -0.040835362 -0.4546709 -0.2781508 -0.21772076 -0.014776081 0.061025504
0.28539816 0.18879579 0.08920384 0.15510012 0.38231578 0.06289252 0.21953046 0.34000802
0.31020442 0.027304286 0.36592188 0.15647238 0.071827106 0.07372722

bias f4 [6]
00000000: 434e b43d 5056 14bd 8e22 fc3c 4fdf 3f3d
00000010: b240 36bc 3a74 d93d
0.0880399 -0.036215127 0.030778196 0.046843823 -0.011123823 0.106178716

weight f4 [16, 6, 5, 5]
00000000: 55b9 e0bd 6ee6 a3bc 69d9 d13d 8033 5a3d
00000010: c274 3d3c 3eb6 d93c 8de4 f8bd 1daf 2bbe
00000020: 2031 59be c239 02be 00f9 553e 2e03 5e3d
00000030: c98b 793e edb8 0c3e 50e1 0f3e f230 b73d
00000040: 27ac 7d3e ed3a a83e a25b 6e3e 8925 7e3c
00000050: 829e bfbd 9c8b b7bd 233d 98bd 2808 0ebe
00000060: 5677 98bc 23bb 923d 45e5 293c dba1 74bd
00000070: 98e7 cebd b171 89bd 5200 cd3b 3b82 8139
00000080: a876 933c 42b9 53bc 2d17 cabd 1e8e cbbb
00000090: fa4f 263d 5b43 273d 2b52 693d 7670 c1bb
000000a0: 71d9 00be 781d dbbd 4d5e e83c a552 4b3d
000000b0: 47a2 523d 8013 11be f397 2abe b329 27be
000000c0: 68d0 cebd dfe6 6b3d 572b 0bbc 8507 a2bd
000000d0: d24b 0b3d f66d 1e3d 22e9 8ebc 8e90 e83b
000000e0: a510 2cbd 97ae 12be 566e 16be 663d e6bc
000000f0: ebae 32bd 3647 fc3d e369 c6bc 0c6e ad3d
00000100: cc1f c63d 37b6 e9bd 793c 903d 4c3d b53d
00000110: d2ca b33d fa1c eebc 98bc 38bc 35fd 32be
00000120: fe51 76bd 46d6 0a3c 165b 2f3d 579b 463d
00000130: b7c2 1bbd 546b 2abe d321 0abe 796b 6abd
00000140: 6b2d 3ebc 9a08 dfbc 3cbd 173d 2d57 dfbc
00000150: 7c31 62bd 776b c33a 1c69 bf3d 6fd4 183c
00000160: 4e12 373d fc65 6fbd 0524 04be 640d 27bd
00000170: 9df0 5f3c 9e03 13bd b223 21bd 75ed b3bd
00000180: 5c44 2cbe 33e0 21be 9bb2 9a3c 1fd4 683d
00000190: 86e8 f93a 7b19 d4bd 6a4d 843d cdd4 bf3a
000001a0: 9d49 85bd 0952 df3c 2581 473e d458 ec3d
000001b0: dc1d 8dbc 15df 593d 0bd9 1dbe 02ac 3dbd
000001c0: 646e ea3d 467c 103d 9827 efbc c78c 53be
000001d0: f62e 02be 5bc1 febd d933 8cbd 4cc6 0f3d
000001e0: 9dd9 cbbd ecb6 1bbd 659b 13bc 96ab d7bd
000001f0: e982 debd 86f7 7fbd 7ee1 01be 16a1 693c
00000200: 5444 a4bc 10ad 13be 7f34 a53d b9e8 323e
00000210: f944 463e 798d 1c3e 6165 b53d 0c9e 1c3d
00000220: 7105 7a3e 9cd1 423e fda3 193d a42b 993c
00000230: a682 08be e06e 15be 3c22 7dbc bbc8 88bd
00000240: 8860 21bd 57ba 0f3e 7127 ad3e 79c7 883e
00000250: 6abc fd3d 9e69 94bc 5a6d 88bd 196a df3c
00000260: 39e2 253b a9f3 313d 690c dd3c 0426 1fbe
00000270: 3bab 77bd 41b1 c6bd f311 e7bd 9446 293c
00000280: 1e88 8b3c 5591 e7bd 343c a33d f530 863e
00000290: e7f0 163e 055b a33e de89 933e 86a6 243e
000002a0: 730a 283e 0209 ecbd e86e e6bd 9cbf 403d
000002b0: 61b9 973b 7eb5 f2bc bc53 94bd 5338 91bd
000002c0: c022 293d 1c1a a2bd c037 a3bc 03ba 71bd
000002d0: d8f9 bb3d 78f4 cebd 4d57 c4bd c997 e4bb
000002e0: f56f 0fbc 9940 9d3d 1c18 1abd f8c4 59bc
000002f0: 258d f63d 9bd2 173d c719 bd3d 5e5c be3d
00000300: b2fb e53c 02f0 d5bc 81fa 173d 0231 e2bd
00000310: 60f5 cabd 460b cbbc dbd6 333d a013 00bd
00000320: da1a a53c 8d46 f0bd f81e 483d acd1 573d
00000330: 15da 62bc 377d 72bd 93f5 b1bd cc7e 02be
00000340: 1c51 03be b33d 80bd ed7a 73bd 740d dbbd
00000350: 9e13 39bd 252c 323d 66b2 9c3d 5fdf 063e
00000360: 1a26 8e3d 85bb 813d d54e ab3d da00 29bd
00000370: 875b 4abc b9c5 c63d 15a9 153d 674d 4638
00000380: 57ca 44bd b722 b53c f317 8c3c 9ba9 febd
00000390: 303b 4cbd fe38 c8bd cfc2 31bd f251 5fbe
000003a0: 07bf f0bd 4a17 0f3d eb98 6a3d 2af7 083d
000003b0: 2606 e5bb 4750 1a3e 87da 323d 602a 723b
000003c0: 778b 303d 15ff 9d3d 7f24 6f3d 0d3a 06be
000003d0: 9b5d fcbc 2600 edbd 0c07 1abe b339 eebd
000003e0: 37e9 d8bb 073c 603d 8a74 ffbd 65b3 80bd
000003f0: bfc9 4ebd 27fb 063c 2f6f 243b 2714 6c3d
-0.10972849 -0.020007338 0.10246546 0.05327177 0.011563482 0.026576158 -0.121529676 -0.16766019
-0.21210146 -0.12717345 0.20895767 0.05420225 0.2436973 0.13742419 0.14050794 0.089448825
0.24772702 0.32857457 0.23277143 0.015511879 -0.09356405 -0.08962175 -0.07433536 -0.13870299
-0.018611591 0.071646 0.0103696035 -0.05972467 -0.10102767 -0.06711138 0.0062561417 0.00024701827
0.018000916 -0.012922587 -0.09867702 -0.00621201 0.040603615 0.04083572 0.056963127 -0.005903299
-0.12582947 -0.1069898 0.028365279 0.049639363 0.05142429 -0.14167595 -0.16659527 -0.163245
-0.10098344 0.057593223 -0.00849422 -0.079115905 0.034007855 0.038679086 -0.01744515 0.0070973104
-0.04200806 -0.14324413 -0.14690527 -0.028105449 -0.043623846 0.1231827 -0.024220413 0.084682554
0.096740335 -0.11411708 0.07042784 0.08849582 0.08778919 -0.029066551 -0.011275433 -0.17479403
-0.060136788 0.008473938 0.042811476 0.048487987 -0.03802749 -0.16642505 -0.13489465 -0.0572314
-0.011607508 -0.027225781 0.037045702 -0.027263248 -0.055222973 0.0014909346 0.0934622 0.009327992
0.04469519 -0.05844687 -0.12904365 -0.040784255 0.0136682065 -0.03589212 -0.039340682 -0.08785526
-0.16822952 -0.15808181 0.018883994 0.05684292 0.001906649 -0.103564225 0.06460078 0.0014635563
-0.06508181 0.027260797 0.19482858 0.1154038 -0.017226152 0.053191263 -0.15414827 -0.046306618
0.114468366 0.035274766 -0.029193684 -0.20659171 -0.12713227 -0.124392234 -0.06845827 0.03510122
-0.09953616 -0.038016245 -0.009009217 -0.10530774 -0.10864813 -0.062491916 -0.12683675 0.014259597
-0.020052113 -0.14421487 0.080666535 0.17471589 0.19362248 0.15288343 0.08857227 0.038236663
0.24416138 0.19025272 0.037509907 0.018697567 -0.13331088 -0.14593077 -0.015450057 -0.06678911
-0.0393987 0.14035927 0.33819154 0.26714686 0.12389453 -0.018116768 -0.06661482 0.027272271
0.002531184 0.043445263 0.026983457 -0.15541846 -0.060466032 -0.09701777 -0.112827204 0.010331769
0.01703268 -0.11307017 0.07970467 0.26209226 0.14740334 0.3190538 0.28816122 0.16079149
0.16410236 -0.115251556 -0.112516224 0.047057733 0.004630253 -0.029627558 -0.072425336 -0.07090821
0.041292906 -0.07915136 -0.019924045 -0.059015285 0.09178513 -0.101052225 -0.09586964 -0.006976102
-0.00875472 0.07678337 -0.03762065 -0.01329159 0.1203864 0.037066083 0.09233432 0.092949614
0.02807412 -0.026115421 0.037104134 -0.11044504 -0.09910083 -0.024785649 0.043906074 -0.031268716
0.020154405 -0.117322065 0.04885766 0.052690193 -0.01384594 -0.059201445 -0.08689418 -0.12743682
-0.1282391 -0.06261768 -0.059443403 -0.10695925 -0.045184724 0.04349913 0.07651214 0.13171147
0.06940861 0.06334595 0.083646454 -0.041260578 -0.012350923 0.09705681 0.036538202 4.7278965e-05
-0.04804453 0.02211128 0.017101264 -0.124346934 -0.049861133 -0.097764954 -0.043398675 -0.21808603
-0.117551856 0.03493432 0.05727474 0.03343884 -0.0069892583 0.15069686 0.043665435 0.0036951527
0.043101754 0.07714669 0.058384415 -0.13108082 -0.030806353 -0.11572294 -0.1504175 -0.11632099
-0.0066195983 0.054744747 -0.124734 -0.06284217 -0.05048537 0.00823859 0.0025090685 0.057636406

bias f4 [16]
00000000: b03c 62bd 0220 14be 7afd 5dbc afbe 8f3d
00000010: bd57 3ebd a27a 143c dd66 7f3d 5b00 863d
00000020: 5dee e4bd 75a0 86bd 9ccc d53c 7ec3 103c
00000030: aa69 84bd 570c 06be e88f 643d 5998 893d
-0.055233657 -0.14465335 -0.013549203 0.07018792 -0.046470392 0.009062441 0.062353957 0.065430366
-0.11178277 -0.065735735 0.026098542 0.0088356715 -0.06465466 -0.13090645 0.055801302 0.06718511

weight f4 [120, 400]
00000000: f181 38bc eba3 6b3c 3cd9 2abd 784c 413d
00000010: b8ac 8f3d c9d1 dbbc 6dc9 20bc 873f 70bd
00000020: 2de4 0a3d b2a6 ec3d b780 273d b687 723c
00000030: 330d b53c 80d1 4b3d e1bd 593d bbb3 933d
00000040: 4b6f 41bd 7660 943d e50d 923a 04cc f2bd
00000050: fe79 463d f30c f43d b0d3 9d3c 82a2 34bc
00000060: f63c dc3c 4ff2 abbc be51 1cbd 4f9c 44bd
00000070: d23d 9b3c fba5 ec3c 6aff 1e3c 7997 f4bc
00000080: 94eb 0b3d 1b5d 9b3c 651f 803b cc3a e53c
00000090: ef23 cbbc ddc4 6c3d 87df 823d 07b3 97bd
000000a0: 6819 7fbc 1f51 fc3a 83d2 873d 807f 8b3d
000000b0: 799c d33c 56cf 58bd 4beb 563d b850 853d
000000c0: a059 0c3c 9e5a 84bd e5ea bd3c 72ac 73bc
000000d0: aad8 14bc 6f51 99bd 192d 4abc a039 29bd
000000e0: 003c 883c 0dc8 1cbd 9fd7 babb e601 6ebd
000000f0: 4606 97bc ff41 713d 6837 983d 7e4c a5bc
00000100: b711 373d b923 283d 9a4e a33d 47fc 8d3d
00000110: 0e90 053d 2247 973c d448 c03c ea04 cc3d
00000120: 4194 2f3d 5de9 1a3c 584d 43bd de24 c53a
00000130: 9946 0dbc 9c26 213c 5ca4 8b3d deca 823d
00000140: 193f f43b 2d06 c03c fd65 b93c 4c66 aabc
00000150: 3e78 093d 0804 26bd 812d 303d 552c 14bd
00000160: cd28 7dbc ad2d 1fbd a491 483c fe37 473c
00000170: 5f06 b2ba 565f f8bb 3dc3 8ebd 82a9 6c3c
00000180: 03a9 7e3d e7e3 da3c 54eb 483b 560e 8f3b
00000190: e151 0cbd b269 59bd 7d7c c2bd f041 743c
000001a0: 9f86 0f3e b3a0 96bc 6e04 8a3b ea15 b8bd
000001b0: 17d2 8bbd 8905 393e 6fc2 4d3d e5dd 56bd
000001c0: ee19 973c a914 ecbc 3666 3c3d 77e9 813d
000001d0: 0a63 263c 2ccc db3b de40 0a3d 6666 35bd
000001e0: 6ec5 013d 1e08 e9bb 5208 463d 5af9 0c3d
000001f0: 7f41 503d fe9e 7dbd 3340 e2bc a319 c03b
00000200: af1b 69bd 16df b3bc fe40 7b3b 95ea fd3c
00000210: d15a 833b f761 68bb 6c08 75bd dae6 99bd
00000220: 4f57 1ebc 9de3 1abc 721c 623d 36f0 b43d
00000230: 1434 14bc cd3d 0c3d e997 273e 33e6 7f3d
00000240: ad33 4c3d 7d74 f63c 6863 72bd 6990 9d3b
00000250: c60a 573d 70f1 07bc 466c 053d f48c c5bc
00000260: 4928 803d 48c0 083d 0312 d93d 80c5 42bb
00000270: ea1e 143b 80b3 69bd 3ed3 c1bd 5eee cdbc
00000280: 00ad a4bc 1852 483d 6c1e 49bd 7c07 e13c
00000290: 8ce2 993c d48f 7c3d 1167 9a3d a7eb 24bd
000002a0: bb20 04bc 452b f43d 63ac f5bb 7d93 d0bc
000002b0: b4cc 76bb 2791 1dbb 1380 883d 1cf2 383e
000002c0: 5b34 093d 2f6f a73d 620a 313c cae6 823d
000002d0: 1ed5 22bd 5834 90bc e409 4f3d d22a 403d
000002e0: 08d3 cf3b c3b1 8abc feb7 fdbb aecf 163b
000002f0: 83e2 01bd 4c3b 853c d2ec 3cbd 0d52 2c3a
00000300: 4340 2f3c 7857 9c3b 44b9 6ebd 1d67 e8bd
00000310: a3f5 a4bd 2dcb 123d 55f3 b43d a73e 043e
00000320: 688a f73c a314 c4bc f057 7fbc e6b2 83bd
00000330: 3d47 2a3b ddde 63bd 5ebe 16bc cdfb 96bd
00000340: 9d39 d1bc 762f 9a3d ce43 103d 1b95 313c
00000350: 1499 abbc 024f 103d 109e 033e 2f74 f73c
00000360: b417 b7bc 190d 183d ee86 ae3c cbd0 a3bd
00000370: 4004 a73d d216 0d3e 0971 0c3c 6461 dc3c
00000380: 9a57 8c3c ec08 e53c 1ce2 233b cfb0 b7bd
00000390: 5c3d 85bd 2b1b 29bc 3571 c43c 0d63 acbc
000003a0: 0091 4cbd c3ea b23a f144 e83b a885 6c3d
000003b0: 1780 e03d 7485 c03d 0f17 953c 000e 823b
000003c0: 0998 87bc 9152 533d d030 1b3d b8db 4f3d
000003d0: 357b 08bd baf6 203d d98d 003d 66e6 a6bc
000003e0: a8ae fabd c7ca 3ebd f8e7 293d a8bf 593d
000003f0: 4d8f 903c a695 153d cf3a 1e3d 5b42 7a3d
-0.011261449 0.014382343 -0.041711077 0.047192067 0.07015365 -0.026833432 -0.009813649 -0.058654334
0.03390901 0.11555232 0.040894236 0.014802864 0.02210102 0.04976034 0.0531596 0.07212015
-0.047225278 0.07244961 0.0011143057 -0.11855319 0.048456185 0.11916532 0.01926598 -0.011025073
0.026884537 -0.020989565 -0.038163893 -0.04800063 0.018950377 0.02888774 0.00970445 -0.029857384
0.03416021 0.018965295 0.0039099925 0.027982138 -0.024797408 0.05780493 0.06390291 -0.07407194
-0.015570022 0.001925025 0.06631949 0.06811428 0.025831448 -0.052932106 0.052470487 0.065095365
0.00856629 -0.06462596 0.023183296 -0.014872657 -0.00908486 -0.07486235 -0.012339854 -0.04131472
0.016630173 -0.03827672 -0.0057019736 -0.05810728 -0.018435609 0.05890083 0.07432443 -0.020178076
0.04469463 0.041049693 0.079739764 0.06932884 0.032608084 0.018466536 0.023472227 0.09961875
0.042865995 0.009455052 -0.047681183 0.0015040895 -0.008622789 0.009835865 0.068184584 0.0638635
0.007453811 0.023440445 0.02263164 -0.020800732 0.033561938 -0.04053119 0.043012146 -0.03617509
-0.015451622 -0.03886192 0.012241755 0.012159346 -0.0013582221 -0.0075797243 -0.069708325 0.014444711
0.0621729 0.02672 0.0030657845 0.0043657226 -0.034257773 -0.053079315 -0.094964005 0.014908299
0.14016198 -0.018387174 0.004211954 -0.08988555 -0.06827181 0.18068518 0.050234254 -0.05245771
0.018444981 -0.028818445 0.045995913 0.06343358 0.010155449 0.006707689 0.03375327 -0.044287108
0.031682424 -0.0071115633 0.04834778 0.034417488 0.050843712 -0.061919205 -0.027618503 0.005862431
-0.056911167 -0.021956962 0.00383383 0.030995646 0.004008629 -0.0035458782 -0.059822485 -0.075147346
-0.009664371 -0.009453681 0.05520291 0.08834879 -0.0090456195 0.034238625 0.16366543 0.062475394
0.04985397 0.030084843 -0.059176832 0.004808475 0.05250051 -0.008297309 0.03257396 -0.024115063
0.06257684 0.0333865 0.105991386 -0.002971977 0.0022601434 -0.05705595 -0.094641194 -0.025138076
-0.020102024 0.048906416 -0.04910128 0.02746939 0.018784784 0.061660603 0.075391896 -0.040263798
-0.008064444 0.119223155 -0.0074973567 -0.025460953 -0.0037658634 -0.0024042816 0.06665053 0.18061107
0.033497196 0.081755035 0.010805698 0.06391676 -0.039754026 -0.017603084 0.05054654 0.046915837
0.0063422956 -0.016930467 -0.007742881 0.002301197 -0.03171016 0.016263627 -0.046124287 0.0006573506
0.0106964735 0.0047711693 -0.05828215 -0.11347792 -0.08054664 0.035838295 0.088354744 0.12914525
0.030217364 -0.023935622 -0.015584931 -0.064306065 0.0025982403 -0.05563246 -0.0092006605 -0.07372246
-0.025540167 0.07528584 0.035220914 0.010838772 -0.020947017 0.035231598 0.12853265 0.030206768
-0.02235017 0.037121866 0.021304574 -0.079988085 0.081551075 0.13778237 0.008571872 0.026901908
0.017131615 0.027958356 0.0025006598 -0.089692704 -0.06505844 -0.010321419 0.023979763 -0.021043325
-0.04994297 0.0013650287 0.0070882966 0.057744652 0.10961931 0.09400454 0.018199472 0.003968954
-0.016551988 0.051592413 0.037888348 0.05074665 -0.033320624 0.039297797 0.031385276 -0.020373534
-0.12240344 -0.046580102 0.04148099 0.053161293 0.017646456 0.03651967 0.038630303 0.061098438

bias f4 [120]
00000000: b03b 0c3c 7896 bd3c dc06 bebc 93a6 123c
00000010: 50d2 f9bb a2b1 4d3c e64d 9d3d ccf8 92bd
00000020: 76dc b93d 8f25 cebc c2fd 613a 111b babb
00000030: 70a3 9c3d 9409 55bd 8b45 9a3c a3dd 653d
00000040: dc93 ffbb b48e 983d 88da 09bd 931a 603c
00000050: 2026 55bd cd45 29bc 2991 b83d 5904 a63c
00000060: 4339 74bc 1b9d 26bc 1332 1b3c 055c 203c
00000070: 41ea 23bc d91d 3bbc 3e24 103d db15 2ebd
00000080: 6951 f1bc 9ff0 973d e7e1 063d 6836 37bd
00000090: d315 50bd 7252 4e3d c53c f739 9ae3 3c3c
000000a0: a5a5 e33b 4af6 c6b9 bc1f 44bd 559e 893d
000000b0: 6526 06bd 8684 7fbd d2f1 5bbd 01e1 b43c
000000c0: 9ce0 44bc 63ba 23bd 7f5c cf3c 36f7 00bd
000000d0: 5bd4 20bd 393b 2bbd 2a51 253c 5239 93bc
000000e0: 787e 053c 4cc1 aebb c834 0bbd eaaf 773c
000000f0: 9fbb 0dbd ea5a c73c 2d2e 04bc 42cf 523d
00000100: 524d debc 8ada 713d 397d 92bd f0f5 a43d
00000110: 970c 07bd e408 1abd c14b d9bc 2232 55bd
00000120: 9bc9 3e3d 8657 46bd a6db 39bb d497 ec3b
00000130: 58a2 6f3d c008 84bd 1c6b 0c3d 1f9e dd3c
00000140: 0e6f 873c cdd7 5fbd 5259 cfbd ebc4 e3bc
00000150: 323e b4bc c60f 903c f6c5 beba a280 36bc
00000160: 4ac5 4dbd 6361 33bd da30 033d 39d9 dcbc
00000170: 4dd0 893c 0dfe 573d c122 51bd 1d40 36bd
00000180: 89f2 463d 14b2 063d a1bf 673c b21c 7abd
00000190: 6d12 263d 1e9f 9c3d 1b9d 633d cc89 223d
000001a0: 87a7 78bc 0e0e efbb 551f fb3d 7117 c13c
000001b0: d9f0 96bc bc93 44bd cd33 c1bc 08f4 15bb
000001c0: d551 d63c f132 393d a69a dfbb 7a17 bcbd
000001d0: ec46 743d 4c82 83bd b889 c33c 1075 cb3d
0.0085591525 0.023143038 -0.02319663 0.008950847 -0.007623948 0.012554558 0.076808736 -0.071763605
0.09075253 -0.025164394 0.00086208817 -0.005679496 0.07648361 -0.052011088 0.018831989 0.056119572
-0.0077996086 0.074490935 -0.033655673 0.013678211 -0.052038312 -0.010331583 0.09012062 0.020265745
-0.01490623 -0.010169293 0.009472388 0.009787564 -0.010004581 -0.01142069 0.035190813 -0.04250131
-0.029457765 0.07418942 0.03293028 -0.04472962 -0.050802063 0.050371595 0.00047156788 0.011528874
0.0069472366 -0.00037949003 -0.047881827 0.067196526 -0.03275146 -0.062382244 -0.053697415 0.022079946
-0.012016442 -0.039972674 0.02531266 -0.03148576 -0.039265018 -0.041804526 0.010090152 -0.017971668
0.008147828 -0.0053331014 -0.033985883 0.015117625 -0.034602758 0.024335343 -0.00806765 0.051467188
-0.027136479 0.059046306 -0.071527906 0.08054721 -0.03297099 -0.037606135 -0.02652538 -0.052049764
0.046578985 -0.048423313 -0.002835968 0.0072202478 0.058504432 -0.064469814 0.034281835 0.027052937
0.016532447 -0.054649163 -0.101244584 -0.027803859 -0.022002313 0.017585646 -0.0014554847 -0.011139067
-0.050236978 -0.043794047 0.03202901 -0.026959049 0.016822958 0.052732516 -0.051058535 -0.044494737
0.048571143 0.032884672 0.014144809 -0.061062522 0.040544916 0.07647537 0.05556975 0.039682195
-0.01517666 -0.0072953766 0.122618355 0.023570748 -0.018425392 -0.047992453 -0.02358427 -0.002288105
0.026162067 0.045214597 -0.0068238555 -0.09184165 0.05963795 -0.064213365 0.02386938 0.09934437

weight f4 [84, 120]
00000000: 6c99 94bc c0b4 a03d 342b 25bd 362a ac3d
00000010: 290e c8bc 46d4 f6bc 08d7 d0bc b816 4e3d
00000020: 25e9 4ebc bbcd 0f3d 7235 aa3c 6c56 fcbd
00000030: 448d 7fbd aa82 963d 47e1 b9bd aba3 24bd
00000040: 4d91 b53c 03b9 5a3d 3486 283c 9898 bfbc
00000050: 3974 38bd d1af b53b be43 ff3c c0df a53c
00000060: ca2c a7bd 9469 86bc de67 e0bd 382c 213d
00000070: 48be e33c 283b 113d 439c c1bd 68bb cc3c
00000080: 46ba 32bd 44ba 5ebd aff7 8bbd 0f45 ffbb
00000090: 7ac4 b63d b81c 103d c0a0 c0bb a3d4 acbc
000000a0: 46e8 20bd d83f 063d e856 973c 6382 933c
000000b0: 69c4 3a3d fcc7 9d3d 5cfb aebc 6b09 9abc
000000c0: 5744 e4bd ab49 d6bd 2742 b8bd 4cfe d53c
000000d0: a68c e4bd 976a c7bd d4e8 a5bc 8432 1fbd
000000e0: dfba 12bd 098f 28bc 7e54 62bd 865e 55bd
000000f0: 95fa c0bc 6802 47bc 7565 adbc 36e2 dcbc
00000100: a77b 723d 913f 5abd c430 8c3d 459b 04bd
00000110: 497e dabd 63f1 9fbd 2387 c63c 9461 1dbd
00000120: 4734 fdbd 88ae 4abc 2670 d2bd 69ad a6bd
00000130: a2f8 ebbd 783c 903c 496f 0bbd f774 6abd
00000140: dc38 1d3d 6052 d0bb b8fe 5e3d 36f6 87bd
00000150: b8b4 a23d 0868 093b 9486 583d 848c 59bc
00000160: 6034 91bc e08b ccbd f975 febd f6b6 8bbd
00000170: a1a5 f33b 9a56 debd 0293 8ebd 90dc 423c
00000180: 9a83 5cbb b43d a0bd 788d eb3c 908d ebbc
00000190: bf9d a8bd 5bf4 fabd 37bd b7bd 6ffb 473d
000001a0: c810 5a3d a3e8 2c3d 379e 0dbc 77dc 553d
000001b0: bf6c debd 9010 753d 80a9 a7bc 0181 d5bd
000001c0: b036 063c f9a3 c6bc 68be 7fbd fd78 73bd
000001d0: ed27 0d3d 2fec 77bd 03cf 4bbd f47d 0abc
000001e0: d729 d4bd 114f 1f3c e5f4 7fbd 065f d7bc
000001f0: a26d 273c 71a6 c53c 523a d8bd 19f9 81bd
00000200: b9a3 fd3c 6184 473d cb31 9e3a 8e2a 9ebd
00000210: 6c42 81bd 7221 0cbd 457b bcbd 79df a2bd
00000220: 9c04 91bd 3e9b 833d df9b 97bd 5322 103c
00000230: e327 773d 43be e13b ecc0 873d 4102 303d
00000240: b1bc cd3d f388 09bd 62ca 293e 20fb e0bd
00000250: 84d6 9a3c 3584 333e 45c1 edbc 6ada fabc
00000260: b12c eabb caa8 623c cdc0 30bc be9d d13c
00000270: 72bc 90bd 099f b8bd 859d b1bc 0177 cd3d
00000280: 0624 ec3d 5d09 a83c 7028 b8bd 446c 5cbd
00000290: 6ae7 e63d 6522 803d 6bdb 8dbd 9b3d 983c
000002a0: 3eab dc3d a0bf 243c 8d6e 223d ea83 af3d
000002b0: 579d 5ebd 331a c73c 37cd 5cbd 50a5 c6bd
000002c0: 0d29 4c3c ff21 cabd 83d4 e03d eddf 1ebd
000002d0: f3d8 dc3d e8e6 8ebd e4ee ddbd dd16 aebc
000002e0: e21d 563e da14 f3bb 3e87 8fbc abe0 223e
000002f0: 8054 f438 6a05 1a3d f9bc b73d f75a d5bc
00000300: 0f92 97bc aab8 71bd da9a 7ebd 6849 c23c
00000310: b99a 0b3d 3102 85b9 c37c 9a3d 4e45 923c
00000320: 2c5b b03c ef93 9ebd edc2 083d 7e1a 323d
00000330: 2e50 7f3c fc9c de3d 212f a53d 06c8 d6bd
00000340: c985 ce3d 952d 70bd c7ff 0dbd 884e ba3d
00000350: fea3 0b3e 9075 30be 2d43 8fbd dd96 0abd
00000360: c4d4 2cbd 69f9 9e3d 41b8 b73d 8df3 65bd
00000370: 8856 903c 3b25 adbd 022c 57bc e6d4 2ebd
00000380: 9d24 b5bc ab64 993d 393f 3d3d 0d89 fa3b
00000390: 4321 68bd d0e3 923d 4740 bfbd 67f5 a43d
000003a0: ae72 31bd ec23 8cbc dfc2 6d3c eb4e d8bb
000003b0: 4cff 163d 862b 003e 97d2 a83d 76b0 e23c
000003c0: 9168 053e 2979 aebd 2430 fa3c 9234 c3bc
000003d0: cb6f 85bd f7f0 8ebd 7a9d 543c ef12 963d
000003e0: 4527 403c 11f3 05be 55bb 0e3d d31f ec3c
000003f0: e658 833a 6750 a83c f8fa 873d ee90 623d
-0.018139564 0.07846975 -0.040324405 0.084064886 -0.024420815 -0.030130517 -0.02549316 0.050314635
-0.012628828 0.03510831 0.020777438 -0.12321171 -0.06239058 0.07349141 -0.09076171 -0.04019515
0.022164011 0.053399097 0.010285903 -0.023388192 -0.045032714 0.0055446406 0.031160232 0.020248294
-0.0816284 -0.016407765 -0.10957311 0.03934881 0.027800694 0.035456806 -0.09453633 0.024991706
-0.043634675 -0.054376855 -0.06834351 -0.007790215 0.08924194 0.03518364 -0.005878538 -0.021097487
-0.039284013 0.03277573 0.018474057 0.01800651 0.045597468 0.077041596 -0.021360092 -0.018803319
-0.11145847 -0.1046327 -0.089969926 0.026122235 -0.11159639 -0.09737127 -0.020252623 -0.038866535
-0.035822745 -0.0102880085 -0.05525636 -0.052092098 -0.023556987 -0.01214657 -0.021166543 -0.026963335
0.059199955 -0.053283278 0.06845239 -0.03237464 -0.10668618 -0.07809713 0.02423436 -0.038423136
-0.12363487 -0.012370713 -0.10275297 -0.08138544 -0.11522032 0.017606959 -0.034041677 -0.057240453
0.038384303 -0.006357476 0.054442137 -0.06638758 0.079446256 0.0020966548 0.05286272 -0.01327813
-0.01772517 -0.099876165 -0.12424845 -0.068220064 0.007435516 -0.10856362 -0.06961633 0.0118934065
-0.0033647777 -0.07824269 0.028753981 -0.028754026 -0.08233213 -0.12253638 -0.08971637 0.04882377
0.05323866 0.042214047 -0.008643678 0.052212205 -0.108605854 0.05983025 -0.020466566 -0.10424996
0.008191749 -0.02424811 -0.062437445 -0.059441555 0.034461904 -0.060527977 -0.04975797 -0.008452881
-0.10359543 0.009723441 -0.06248941 -0.026290428 0.01021901 0.024127217 -0.10557999 -0.0634634
0.030961858 0.04871023 0.0012069283 -0.077229604 -0.06311497 -0.034211583 -0.09203199 -0.0795278
-0.07080957 0.064260945 -0.07402777 0.008797246 0.060340773 0.006889136 0.06628594 0.0429709
0.10045756 -0.03357787 0.16581109 -0.10985398 0.018901117 0.17530902 -0.029022822 -0.030621726
-0.007146441 0.013834188 -0.010788155 0.025587913 -0.07067193 -0.090147085 -0.021681556 0.10032464
0.115303084 0.020512277 -0.08992088 -0.053814188 0.112746075 0.0625656 -0.06926616 0.018584063
0.10774849 0.010055453 0.03965621 0.085700825 -0.05434927 0.024304485 -0.053906646 -0.096994996
0.012460959 -0.098697655 0.109780334 -0.03878777 0.10783567 -0.069776356 -0.108365804 -0.021251136
0.20909837 -0.007418257 -0.017520543 0.15906017 0.00011650566 0.03760282 0.089715905 -0.026044352
-0.018502263 -0.059014 -0.062159397 0.023716643 0.034083102 -0.0002536937 0.07543328 0.017855313
0.02152785 -0.0774306 0.03338902 0.043482296 0.015583081 0.10869786 0.0806563 -0.1048737
0.10084111 -0.05863722 -0.034667756 0.0909701 0.13636777 -0.17232347 -0.06995235 -0.03383528
-0.042195097 0.07762415 0.089706905 -0.05614047 0.017619386 -0.08454367 -0.013133051 -0.042683505
-0.022112185 0.07489904 0.046202872 0.0076457323 -0.056672346 0.07172358 -0.09338432 0.08054619
-0.043322258 -0.017106973 0.014511793 -0.0066012046 0.036864564 0.12516603 0.08243292 0.027672034
0.1302817 -0.08519203 0.030540533 -0.023828778 -0.065154634 -0.06979554 0.012976998 0.0732783
0.011728113 -0.13081004 0.034846622 0.028823769 0.0010021001 0.020546151 0.06639665 0.055313997

bias f4 [84]
00000000: ffff 4ebd 1270 9e3c d6d8 c33d 0c61 d73d
00000010: 0146 a7bd 1b3a d53d 79b6 ce3d e1d4 89bd
00000020: 7585 69bd 7dec 38bd 2fec 22bd 8651 4fbd
00000030: 1394 62bd 759a b7bd 3660 cabd 39c5 2f3d
00000040: 2888 14bd 6833 0cbb 16a5 953c 4dfa a03d
00000050: bf91 2f3d 683e 5d3c be5d 3a3d 9532 d7bd
00000060: 1c7b db3d 6b85 c1bd 7577 fbbc 4485 473d
00000070: 0fab 6fbd 6f5c afbd 65be a53d 650a ca3c
00000080: d481 d3bc 4547 8dbd 6a0d 813d 346b 003e
00000090: e6af 803d 280b a5bd c9b0 a73c ce93 fdbc
000000a0: c914 e0bd 66e2 48bd 1eec 643d 1817 933d
000000b0: 0f8b f4bb c243 aebc 12bc 1c3c 357f 7f3d
000000c0: 6393 843d 19ae 7ebd f8b5 84bd 7a5a 88bc
000000d0: 3369 cc3d a0c8 dabc ba2e 32bd 0a0a c3bd
000000e0: 3d34 12bd beeb ac3c 1992 643d f6b4 b63d
000000f0: 7924 bcb8 ed10 423b 1549 ef3b 88eb c7bd
00000100: 2ba3 313c ee78 ab3d b041 b2bd 7305 eb3c
00000110: bcff b23d 2f9a 0e3d 4d39 493d ca93 52ba
00000120: c8af 1ebd 0278 233d 2a0c db3a efcb 053c
00000130: 614b e73d 32e8 053d fe83 ae3c cc4b af3d
00000140: b8e3 943d 2d9d bcbd 63c8 813c d617 2fbd
-0.050537106 0.019340549 0.095628425 0.10516557 -0.08167649 0.10411473 0.10093398 -0.067300566
-0.05701204 -0.045147408 -0.039776023 -0.050614856 -0.055316996 -0.08965007 -0.09881632 0.042912696
-0.03626266 -0.0021392945 0.018267196 0.07860241 0.042863604 0.013503648 0.045499556 -0.10507695
0.107168406 -0.094492756 -0.03069661 0.048711076 -0.058512744 -0.08562552 0.080929555 0.02466316
-0.025818743 -0.06898359 0.06301387 0.12540895 0.0628355 -0.080587685 0.02047004 -0.030954268
-0.109414645 -0.049044035 0.05588924 0.07182139 -0.007462866 -0.021272544 0.009566324 0.062377173
0.06473424 -0.06217775 -0.0648002 -0.016644705 0.09981003 -0.026706994 -0.043501593 -0.09523399
-0.03569435 0.021108504 0.055803392 0.08921234 -8.971332e-05 0.002961214 0.007302413 -0.09761721
0.010842125 0.08372675 -0.08703935 0.028689122 0.08740184 0.03481501 0.049126912 -0.00080328865
-0.038741857 0.03990937 0.0016711999 0.008166297 0.11293674 0.03269214 0.021303173 0.08559379
0.072699964 -0.092096664 0.015842622 -0.04274734

weight f4 [10, 84]
00000000: 4506 dcbc 1ad8 5dbd 6366 1e3e 88dc 0bbe
00000010: 7d68 d5bd f61c 34be 3ddc 333d 2b89 adbc
00000020: c00d 68bd f2dc 573c d176 d33c b1aa 953d
00000030: 230f c23b 4bb3 02bc 6d78 a43c 9456 2b3d
00000040: cafc 81bd 9694 123e 3cf1 503d 3c6a 25be
00000050: c34f 03be 350c 523d 3d36 42bd 42ce 2fbc
00000060: 1bf6 da3a 17fe 933d c97f cebc a3d9 22bd
00000070: 1716 e5bd 4318 e2bc 777e 6b3d d9ee 0bbb
00000080: 82ba 673d 53fb 853d 2439 4abe d31a adbd
00000090: 5fc9 be3d ed4d 4bbd a0b1 0d3e 33a7 9d3d
000000a0: 8fc5 f5bc 2f8b 543d bbb7 1abe 85bc 27bd
000000b0: 90d9 0b3c a73b 7f3d 6bee ea3c 645c bebd
000000c0: 8faa 78be 7fa2 90bb 65a7 2c3b 3f20 e0bd
000000d0: 979b ddbd b4ff 79bd 617a 29be ea6f 9e3d
000000e0: 4489 9bbd 3c12 0bbe 5e0e 103d e776 163e
000000f0: f5ed 10be 67d4 903c 5766 55bc a397 8e3c
00000100: 4d41 743d d5c4 d9bd f960 053e 0a91 97bd
00000110: 4109 23bd b667 35bd ea0e 1d3e b043 183d
00000120: 95b6 e23d 70d9 b53d aad7 38bd 60e3 eebd
00000130: 4f2f 243c f198 933d 1c00 da3c 5f38 ef3d
00000140: dc63 48be 1ed1 eabd c9e1 c33d e8cd 673d
00000150: e82a be3d ea70 f8bc 697f bebc 3b89 f73c
00000160: 6f66 333d 72b4 89bd edc7 42be 19e1 ea3d
00000170: ad8b 883d b139 eebd 18b5 213e 1af3 803d
00000180: 2864 89bd 2ebb 433d 4b1f e0bc 8ce2 003d
00000190: 96f2 f73a 2b0a abbd f561 0c3d 758f 313e
000001a0: 5b3d 0cbe d2d8 dd3b ab49 ca3d e37c 063d
000001b0: f973 1c3e 3c0d 013c 7cca 5d3d 7537 79bd
000001c0: f09b 19bd a16f ecbc 4fae 00be f267 323b
000001d0: 4643 25bd fcc7 18bd 6db3 1a3d 3b5f 253d
000001e0: 52d9 afbd aa7a b23d c851 1c3e 7679 25be
000001f0: 954f 553d eee1 74bc c588 cebd c53f a93d
00000200: a98c d3bd eb93 fd3d eaef 423d d2c7 00be
00000210: 9c79 eb3d 904e e6bc 7161 1bbd 10a4 e63d
00000220: 8695 fb3d 4020 4f3d bb1a cebd 0650 acbc
00000230: 5f14 153a d429 303e c9a2 b2bd 58e4 963d
00000240: d001 e63c da55 27bd d75e 25be f5ee 3bbe
00000250: 82aa 11be 737e 223e 49d6 f9bd f7c5 13be
00000260: 8150 1cbe a669 3dbd 8b0e 373e 3df0 3fbe
00000270: cc27 223b e0be 6abe d8fc 713d 32e6 43be
00000280: cc9b 3ebe d2e4 673c 5e1c 023e 9fdd d1bd
00000290: b485 363e 920e 34be d148 77bd 1919 073d
000002a0: 1c1f 95bd 8900 093e 6fd4 6cbe 6051 20be
000002b0: e33b ad3d 5603 3abe 01f4 5d3c 8ea4 d73d
000002c0: 6a63 3e3d c3ab 0ebe 2121 113e de1e 623c
000002d0: be71 b4bc 2f67 8e3d ffb4 87bd 3bca 9bbd
000002e0: 780a 9dbd c7b7 ea3d cfa0 b9bd 37e2 f7bd
000002f0: 8565 483c 07a3 e23c 489d 43be 2348 e0bd
00000300: c5be 0abe 3e60 d7bd 1fe6 78be 8144 33bd
00000310: ef1e d93d 241f 5e3d 40d2 9d3d 5c77 c63c
00000320: 76ca 01bd 6575 863d 754f 8d3b bc20 f4bd
00000330: 0018 0c3e 9dd5 70bd 2c73 d73c d24c a1bd
00000340: 5f40 8b3c baea e23d d808 8b3d 7b75 be3d
00000350: 4528 fa3d 2b2f 9ebd beb9 443d d54d eebc
00000360: 837d bc3d 43a0 9ebd 58b4 abbd cae2 7dbd
00000370: 70a9 a43b 649c c3bd 5a1b 083e b170 36bd
00000380: c873 e33d 8f3f 40be 2768 a1bd d706 f13d
00000390: 63bf 6f3d 70bd 693d ff6f 10be d176 b63d
000003a0: c04f f4bd 8b30 c33d 36fa ff3d aa38 8ebd
000003b0: 4448 cdbd 51ae 093d eb33 df3d 7e2a 11be
000003c0: f465 283e afeb e7bd bbe5 ee3b 2c48 ad3d
000003d0: a3bb ef3d 611d 21be d86c 70be 0009 49be
000003e0: 73ba f43d 24a2 f33d 2d8d a0bc 9241 c83c
000003f0: eddf b0bd d309 82bd 73a1 d9bd 411e 613d
-0.026858458 -0.05416117 0.15468745 -0.13658345 -0.1042032 -0.17589173 0.043911207 -0.02118357
-0.056653738 0.013175236 0.025813492 0.073079474 0.0059222146 -0.007977317 0.020076955 0.041830614
-0.06347044 0.14314494 0.05101131 -0.16153806 -0.12823395 0.051281173 -0.047415007 -0.010730328
0.0016705425 0.07226198 -0.025207417 -0.039758336 -0.11185854 -0.02759946 0.057493653 -0.002135208
0.056574352 0.06542077 -0.1974836 -0.08452382 0.09315752 -0.049634863 0.1383729 0.07697906
-0.03000143 0.05189055 -0.1510915 -0.04095127 0.008535758 0.06231275 0.02867814 -0.09294966
-0.24283813 -0.0044139023 0.0026344892 -0.109436505 -0.10820692 -0.061034873 -0.1655059 0.0773619
-0.07594541 -0.13581175 0.03516995 0.14693795 -0.14153273 0.017679406 -0.013024888 0.01740629
0.05963259 -0.10633246 0.13025273 -0.07400711 -0.039803747 -0.04428836 0.1533772 0.037173927
0.11069981 0.088793635 -0.04512755 -0.11664462 0.010021045 0.07206906 0.02661138 0.11680674
-0.19569343 -0.11465667 0.095645495 0.056592852 0.092855275 -0.03032728 -0.023254113 0.030216804
0.04379886 -0.0672387 -0.19021578 0.11468715 0.06667266 -0.116320975 0.15791738 0.06296368
-0.067085564 0.04778593 -0.027358672 0.031466052 0.0018916901 -0.08351549 0.034273107 0.17339881
-0.1369528 0.0067702318 0.09877332 0.032833945 0.15278615 0.0078766905 0.054148182 -0.060843904
-0.03750223 -0.028861823 -0.12566493 0.00272226 -0.04034736 -0.037300095 0.03776877 0.040374022
-0.085863724 0.087148026 0.15265572 -0.16159615 0.05207785 -0.014946444 -0.100846805 0.08264116
-0.10329563 0.12381729 0.04759208 -0.12576225 0.114978045 -0.028113633 -0.037934724 0.11261761
0.12284379 0.050567865 -0.10063692 -0.021034252 0.00056869345 0.17203456 -0.08722455 0.07367772
0.028077036 -0.04085336 -0.1614946 -0.18352874 -0.142252 0.15868549 -0.12199075 -0.14430986
-0.15265085 -0.046243332 0.17876641 -0.18743987 0.002474296 -0.22924376 0.05907902 -0.19130781
-0.1861412 0.014153676 0.12706134 -0.10247349 0.17824441 -0.17583683 -0.060372178 0.03298292
-0.07281324 0.1337911 -0.23127912 -0.15656042 0.08458688 -0.18165335 0.013546945 0.10529433
0.046481527 -0.1393271 0.14172794 0.013801305 -0.022026893 0.069532745 -0.06626319 -0.07606932
-0.076680124 0.11460834 -0.09063875 -0.12103694 0.012231235 0.027665628 -0.19102967 -0.10951259
-0.13549335 -0.105164036 -0.24306534 -0.043766502 0.10601603 0.054228917 0.07706118 0.024226837
-0.031687222 0.0656536 0.0043124505 -0.11920306 0.1368103 -0.058797467 0.026300035 -0.078759804
0.016998468 0.11079927 0.06788796 0.09299751 0.12214712 -0.0772384 0.0480287 -0.029089848
0.09203627 -0.07745411 -0.08384007 -0.06198386 0.0050250813 -0.095513135 0.13291684 -0.044541065
0.11106068 -0.18774246 -0.078811936 0.11768883 0.05853213 0.057065427 -0.14105223 0.08909381
-0.119292736 0.09530743 0.12498896 -0.069444016 -0.10023549 0.033613507 0.108985744 -0.14176366
0.16445142 -0.1132425 0.0072905696 0.08461031 0.11705711 -0.15733863 -0.2347902 -0.1963234
0.11949625 0.1189616 -0.019598568 0.024445329 -0.086364605 -0.0634953 -0.10626497 0.054960493

bias f4 [10]
00000000: d526 7b3c b3de ce3d dde4 2f3d 2b80 f6bd
00000010: bac1 5abd 29d5 663d 0025 8a3d 4721 77bd
00000020: ad9b 89bd a9cb 41bd
0.0153290825 0.1010107 0.04294287 -0.12036165 -0.05340741 0.05635563 0.067453384 -0.06033447
-0.06719146 -0.047313366
